Map/Assets/Models/BoatAgent-1872943.onnx (onnx, 772787 bytes, 13 tensors)

network_body.observation_encoder.processors.0.normalizer.running_mean f4 [52]
00000000: 5689 053e 0000 0000 4b46 5a3f e413 753f
00000010: 404b c63d 0000 0000 6370 663f 4168 783f
00000020: 3bcb c33d 0000 0000 aaab 5c3f fdba 753f
00000030: 5f4c 073e 0000 0000 dd3b 5c3f 7d84 793f
00000040: 1833 643d 0000 0000 01c6 683f 7016 7a3f
00000050: f913 893e 0000 0000 140c 363f f1e3 733f
00000060: 635f d93d 0000 0000 bdc4 5c3f c456 793f
00000070: 9f73 023e 0000 0000 d834 573f 9a75 763f
00000080: 64d7 393d 0000 0000 ea4b 6f3f 017e 7b3f
00000090: 89d3 2f3e 0000 0000 1492 483f f017 703f
000000a0: 15c1 2a3e 0000 0000 e147 513f 461c 733f
000000b0: 806c 513e 0000 0000 f418 443f 516f 6d3f
000000c0: 806c 513e 0000 0000 f418 443f 516f 6d3f
0.13040671 0.0 0.8526351 0.95733476 0.096823215 0.0 0.9001524 0.9703408
0.095602475 0.0 0.8619944 0.95988446 0.13212727 0.0 0.86028844 0.97467786
0.05571279 0.0 0.9092713 0.97690487 0.2677305 0.0 0.7111218 0.95269686
0.10613897 0.0 0.862377 0.9739802 0.12739418 0.0 0.8406501 0.96273196
0.045371428 0.0 0.9347521 0.9823914 0.17170538 0.0 0.783479 0.93786526
0.16675217 0.0 0.81750304 0.94965017 0.20451546 0.0 0.76600575 0.9274798
0.20451546 0.0 0.76600575 0.9274798

network_body.observation_encoder.processors.1.normalizer.running_mean f4 [180]
00000000: 90b3 9142 0000 0000 2463 2743 c093 28be
00000010: b769 b93e 7ec2 3640 0000 0000 0000 0000
00000020: 0000 0000 0000 0000 0000 0000 0000 0000
00000030: 0000 0000 0000 0000 0000 0000 0000 0000
00000040: 0000 0000 0000 0000 80a5 9242 0000 0000
00000050: 8ff7 2543 71e3 29be 7615 bc3e b568 3940
00000060: 0000 0000 0000 0000 0000 0000 0000 0000
00000070: 0000 0000 0000 0000 0000 0000 0000 0000
00000080: 0000 0000 0000 0000 0000 0000 0000 0000
00000090: 8798 9342 0000 0000 6c88 2443 b634 2bbe
000000a0: 03c4 be3e 9611 3c40 0000 0000 0000 0000
000000b0: 0000 0000 0000 0000 0000 0000 0000 0000
000000c0: 0000 0000 0000 0000 0000 0000 0000 0000
000000d0: 0000 0000 0000 0000 a48b 9442 0000 0000
000000e0: e518 2343 c988 2cbe 0e76 c13e fcbd 3e40
000000f0: 0000 0000 0000 0000 0000 0000 0000 0000
00000100: 0000 0000 0000 0000 0000 0000 0000 0000
00000110: 0000 0000 0000 0000 0000 0000 0000 0000
00000120: 8c7f 9542 0000 0000 c6a5 2143 70df 2dbe
00000130: 392c c43e 456e 4140 0000 0000 0000 0000
00000140: 0000 0000 0000 0000 0000 0000 0000 0000
00000150: 0000 0000 0000 0000 0000 0000 0000 0000
00000160: 0000 0000 0000 0000 ce74 9642 0000 0000
00000170: 6e30 2043 ba39 2fbe 40e6 c63e 6222 4440
00000180: 0000 0000 0000 0000 0000 0000 0000 0000
00000190: 0000 0000 0000 0000 0000 0000 0000 0000
000001a0: 0000 0000 0000 0000 0000 0000 0000 0000
000001b0: 706a 9742 0000 0000 0bba 1e43 5a99 30be
000001c0: aba3 c93e 1ada 4640 0000 0000 0000 0000
000001d0: 0000 0000 0000 0000 0000 0000 0000 0000
000001e0: 0000 0000 0000 0000 0000 0000 0000 0000
000001f0: 0000 0000 0000 0000 bb60 9842 0000 0000
00000200: 7f43 1d43 97fb 31be a563 cc3e 7194 4940
00000210: 0000 0000 0000 0000 0000 0000 0000 0000
00000220: 0000 0000 0000 0000 0000 0000 0000 0000
00000230: 0000 0000 0000 0000 0000 0000 0000 0000
00000240: d657 9942 0000 0000 fdc6 1b43 0963 33be
00000250: 9326 cf3e 6851 4c40 0000 0000 0000 0000
00000260: 0000 0000 0000 0000 0000 0000 0000 0000
00000270: 0000 0000 0000 0000 0000 0000 0000 0000
00000280: 0000 0000 0000 0000 5950 9a42 0000 0000
00000290: 2645 1a43 70cd 34be 0aeb d13e 5010 4f40
000002a0: 0000 0000 0000 0000 0000 0000 0000 0000
000002b0: 0000 0000 0000 0000 0000 0000 0000 0000
000002c0: 0000 0000 0000 0000 0000 0000 0000 0000
72.85071 0.0 167.38727 -0.16462612 0.36213467 2.8556209 0.0 0.0
0.0 0.0 0.0 0.0 0.0 0.0 0.0 0.0
0.0 0.0 73.32324 0.0 165.96703 -0.16590668 0.36735123 2.8970158
0.0 0.0 0.0 0.0 0.0 0.0 0.0 0.0
0.0 0.0 0.0 0.0 73.797905 0.0 164.5329 -0.16719326
0.3725892 2.9385734 0.0 0.0 0.0 0.0 0.0 0.0
0.0 0.0 0.0 0.0 0.0 0.0 74.272736 0.0
163.09724 -0.16849054 0.3778538 2.9803457 0.0 0.0 0.0 0.0
0.0 0.0 0.0 0.0 0.0 0.0 0.0 0.0
74.749115 0.0 161.64755 -0.16979766 0.3831499 3.0223553 0.0 0.0
0.0 0.0 0.0 0.0 0.0 0.0 0.0 0.0
0.0 0.0 75.228134 0.0 160.18918 -0.17111865 0.38847542 3.0645986
0.0 0.0 0.0 0.0 0.0 0.0 0.0 0.0
0.0 0.0 0.0 0.0 75.707886 0.0 158.72673 -0.17245999
0.3938268 3.1070619 0.0 0.0 0.0 0.0 0.0 0.0
0.0 0.0 0.0 0.0 0.0 0.0 76.18893 0.0
157.26366 -0.1738113 0.39919773 3.1496851 0.0 0.0 0.0 0.0
0.0 0.0 0.0 0.0 0.0 0.0 0.0 0.0
76.671555 0.0 155.7773 -0.17518248 0.40459117 3.1924686 0.0 0.0
0.0 0.0 0.0 0.0 0.0 0.0 0.0 0.0
0.0 0.0 77.15693 0.0 154.27011 -0.17656493 0.40999633 3.2353706
0.0 0.0 0.0 0.0 0.0 0.0 0.0 0.0
0.0 0.0 0.0 0.0

network_body._body_endoder.seq_layers.0.weight f4 [256, 232]
00000000: 67cb 603d 9b5d 77ba 58d6 83bd 6bdf 4d3d
00000010: 3780 cc3d 507e 35bd 1ea2 2d3c 9fc0 fb3b
00000020: 1f69 a3bd 973b 503d 73bb febd 2080 913d
00000030: 0016 af3b 8ae6 3b3d 7d77 3dbd a9db 89bd
00000040: b071 c0bd 620f 01be 005a 293c fec3 813d
00000050: 6b85 a33d f027 24bc bf58 ab3b b01a 0fbe
00000060: e71c b3bd 3c23 1bbe 5e2b e6bd f03f 0d3d
00000070: 7dfb 203e 2019 98bd e9ee 9f3d fbdb 18be
00000080: 7462 813d a93c 013c f92d fc3a 2f58 c9bd
00000090: be9a dd3d 8123 8e3d aa99 403c 62a5 84bd
000000a0: 1b62 cf3c 1d8b 36bd ec4d dcbd 7b7a eebd
000000b0: a5ff c0bd 7270 66bd 7ba3 fdbc bbb6 c93d
000000c0: d383 3cbd cffe e9bd 7372 d63d af25 6fbc
000000d0: 9833 d5bc 9f45 8a3d 4c8d 5d3b f201 abbd
000000e0: 4dea 023c 9d84 0a3d 188e 82bd 6a74 81bd
000000f0: a81e 9c3d daf9 7d3d 0e3b 4f3d d619 4f3c
00000100: 4636 6dbd 5063 a93c eed9 aebd 7e55 193e
00000110: 539b 813d 2145 edbd b5b0 a63c 9848 06bd
00000120: 0810 1e3c 8e10 d83c 2f6b d4bc f4b3 7f3c
00000130: f2ef 72bd 8019 df3d e563 0f3d e4e0 aa3d
00000140: 4525 dabd 5b44 1dbe 8ecc c7bd 7911 c5bd
00000150: c6fd c6bd af8a b33d 2825 533d f9ec 2ebd
00000160: 2d65 d9bc b372 27bd 20ed 99bc 3733 1cbc
00000170: 65c3 e73d 4069 a5bd 70dc 793d d285 cbbd
00000180: c488 0fbd 5014 843d 7214 1dbd 1ffd 42bd
00000190: 7c16 36be 3edf 30bd 2b64 1d3c 16cb b6bd
000001a0: 347d e8bb f1ce 19bd ff95 35bd 9a03 c33d
000001b0: 3b7a 603b f369 39bd fb41 d5bd 31a0 3abd
000001c0: 3b71 07bd 8dbc 5dbb 3ef4 29bc d71d a13d
000001d0: 59d5 273e f30d 54bb 5945 95bd 734e 3cbd
000001e0: c270 a93c cb25 503c 06d6 d2bd 0d17 5a3d
000001f0: c6e4 373d 150a 943b c339 3e3d 5316 0b3d
00000200: 7286 193e 9964 aabc bb3d 2ebd 6f3d 0abd
00000210: d222 7ebc 8084 e6b9 ef04 fabc b956 4c3d
00000220: ec52 84bc eb2c 07be 1a22 513d c372 9ebd
00000230: 2d4a c3bb 34dc fb3d e492 8fbd 7657 c0bc
00000240: 7766 01bc e403 35bd 8261 0b3e 4223 9ebb
00000250: 35eb 563c 4358 21bc 05e7 8cbd 5dcc f4bd
00000260: 708f 6d3c 20f1 6fbd f900 6fbb 1888 083c
00000270: 6c6f e43c 63a6 913c 7c9e 003d 93ad 0abd
00000280: fa47 d1bc 6879 6abb e580 fcbd e697 cebd
00000290: f109 963c ba82 17be f8f7 063d eca0 f93c
000002a0: 04c6 80bc 9d8a a2bd 09e2 063e 6b3f 07be
000002b0: 07ef 0bbd 04a8 fabd 01e9 883d 94ab 7c3d
000002c0: 90d6 213e c322 8d3d 3d79 133d 9948 293e
000002d0: 6771 85bc 7336 a93d 9380 fcbc e0ea 90bd
000002e0: d152 9e3c e9f5 933b 126d 18bd d178 923d
000002f0: e297 88bb d52b 5cbc c274 423d 9359 183d
00000300: 0808 55bd a67e 83bc 8bd9 f1bb f58b 52bd
00000310: b907 3a3d 6da4 aebd 28e3 8a3b 7941 1bbe
00000320: b669 b33d 9345 a63d 0c2e c9bc ebd5 66bd
00000330: 0999 3f3e e2c8 46bd 50a8 853d 90f6 9f3c
00000340: 8074 12bd 839b 903c c6a1 3ebd 6c5a bb3d
00000350: 7db6 c73c 7f5f 83bd 49ea 10bd bf80 aa3c
00000360: 31d4 0bbc fd7f 2d3d cafb 163c 7f00 a7bd
00000370: 98a2 ed3c 2d03 ee3c b89f 493e b0f3 b7bd
00000380: 70a3 2f3d fe98 99bb 5053 a5bd 63c4 07bd
00000390: b700 03be d4bd 9dba a9fe b1bd b211 ba3c
000003a0: 9fe5 8f3d 326a 2dbc 2d5a c7bc d2c2 0a3d
000003b0: 1158 e53b 916a 03be 2a21 6abd bb1d 103c
000003c0: c695 a23c 0ae5 c13c 444d 863d 69a3 3cbd
000003d0: 5086 a5bd 41ac 5d3d 44de 273e 6826 b8bd
000003e0: 9582 dfbc 6843 883d c2c4 223d 2018 443d
000003f0: d721 57bd 526a 873b 3dbd 523d 4a09 753b
0.05488148 -0.00094362505 -0.06437367 0.050261896 0.099853925 -0.044309914 0.010597734 0.0076828743
-0.07979035 0.05083808 -0.12438097 0.07104516 0.005343199 0.045874156 -0.04625653 -0.0673135
-0.09396684 -0.12603524 0.010336399 0.06336211 0.07984432 -0.0100192875 0.005229085 -0.13975024
-0.08745747 -0.1515016 -0.112387404 0.034484804 0.15720935 -0.07426667 0.0780924 -0.14927666
0.063176066 0.007887998 0.0019239775 -0.09831273 0.1082053 0.069403656 0.011755386 -0.06476857
0.025315335 -0.044566263 -0.1075705 -0.11644455 -0.0942376 -0.05625958 -0.030961743 0.09849306
-0.046024155 -0.11425554 0.10471048 -0.014596387 -0.026025578 0.067515604 0.0033806143 -0.083499804
0.007990432 0.033817876 -0.063747585 -0.06321032 0.07623035 0.062005855 0.05059343 0.012640437
-0.057913087 0.020677239 -0.085376605 0.14974019 0.06328454 -0.11585451 0.020347932 -0.032784075
0.009647377 0.026375081 -0.025930015 0.015606869 -0.05931086 0.108935356 0.035007376 0.08343676
-0.1065164 -0.15358107 -0.097558126 -0.09622473 -0.09716372 0.08766686 0.051549107 -0.042706463
-0.026537502 -0.04088087 -0.018789828 -0.009533695 0.113165654 -0.080767155 0.06100124 -0.099376336
-0.03504254 0.06449187 -0.038349576 -0.047604676 -0.17782015 -0.04318165 0.009606401 -0.08925454
-0.0070950035 -0.03755087 -0.0443325 0.09522171 0.0034252543 -0.045267057 -0.104129754 -0.045562927
-0.03306697 -0.003383431 -0.010373173 0.078670196 0.1638998 -0.0032356947 -0.07288618 -0.045973253
0.02068365 0.012704323 -0.10294728 0.05324464 0.04489591 0.0045178034 0.046441805 0.033956837
0.14992693 -0.020799922 -0.04253934 -0.033749994 -0.0155112315 -0.0004396774 -0.03051993 0.049887393
-0.016152821 -0.13200729 0.051057912 -0.07736733 -0.00595977 0.1229786 -0.07010439 -0.023479205
-0.007897965 -0.044193164 0.13611415 -0.0048259804 0.013117601 -0.009847703 -0.06880001 -0.11953042
0.01449953 -0.058579564 -0.0036469086 0.0083332285 0.027885161 0.017779535 0.031401142 -0.03385694
-0.025547016 -0.003577793 -0.12329272 -0.10087566 0.018315287 -0.14795962 0.032951325 0.030472241
-0.015719421 -0.07936595 0.13172163 -0.13207786 -0.0341635 -0.12239078 0.06685067 0.061687067
0.15804505 0.06891396 0.036004294 0.165316 -0.016289426 0.082623385 -0.030823028 -0.07076049
0.0193266 0.0045153988 -0.037213393 0.0715195 -0.0041684965 -0.013438185 0.04747463 0.0371948
-0.052009612 -0.016051602 -0.0073806695 -0.051403005 0.04541752 -0.085274555 0.004238505 -0.15161695
0.08760397 0.08118739 -0.02455809 -0.05635635 0.18710722 -0.04853142 0.06526244 0.01952675
-0.035755634 0.017652279 -0.046540998 0.09148106 0.02437901 -0.06414699 -0.03537968 0.020813344
-0.008534477 0.042358387 0.009215305 -0.081543915 0.029008195 0.029054249 0.19689834 -0.089820266
0.042880476 -0.0046874275 -0.08072531 -0.033146273 -0.12793241 -0.0012034723 -0.08691151 0.022713516
0.070262186 -0.010584401 -0.024334991 0.0338772 0.0069990237 -0.1283362 -0.057160534 0.008796151
0.019846808 0.023668785 0.06557706 -0.046054278 -0.08082259 0.054119352 0.16393381 -0.089917004
-0.027283946 0.06653482 0.039738424 0.04787457 -0.052522507 0.0041325474 0.051450003 0.003738957

network_body._body_endoder.seq_layers.0.bias f4 [256]
00000000: 1d6c 1bbb df0d 393b e05e 29bc 32cc 493c
00000010: d2f4 b23b c7a4 993c c95d 823c 0fbb f63b
00000020: 4e88 debb 1691 3cbb 20de 683c 8636 13bc
00000030: d6d6 d43c 154c 293b 4797 4ebc 0c57 f53b
00000040: 2e8a b03c f7b9 07bb 11ad 7e3c 0019 103c
00000050: 5783 493c b90f 8c3c d1e9 d8ba 0a62 96ba
00000060: a4a4 8cbb 90e6 9b3c d28f 66bc c19e 163c
00000070: a5fd 863b c66f 5ebb d8e9 c13a d1b1 25bc
00000080: 36be 483c 513c f13c b809 483c 4f8b 363c
00000090: 2cf1 f03c 9551 673c 2cce 813c ce90 163c
000000a0: 5646 aa3c 46c5 11bc 9050 ae3c 5366 4d3c
000000b0: c0fd 393c 6b09 033a f438 bd3c 2ef2 47bb
000000c0: 4f36 51bc 3f03 003c 956a fd38 885c 3cbc
000000d0: 9502 0abb 689a 573c b88a 5e3c 050f 8fbb
000000e0: 5c8c 023c b6be 5fbc 8a25 a73c 74a9 113c
000000f0: bc10 f43b 2fab 743c 8f05 753b 26a3 933c
00000100: eda0 71bc 4c8b 0ebb c67a 333c c9b6 c83c
00000110: 8053 913c 9b74 633b 11f8 6ebc a985 b43c
00000120: 2168 823b d248 793c 2a0d 22bb 0efe 733c
00000130: 27c9 bdbb d834 c03b 487d 973c 1175 d73a
00000140: a18c e23a b949 c43c c00d 90bb 1176 e3bb
00000150: 191f 153c 1af6 a43c 4093 343c 03e4 b8bb
00000160: ca2d 503c b54b 333a 9ac6 cabb 4e08 ac3b
00000170: 5d7f 37bc 4555 cf3a bec1 ee3c 8445 fd3c
00000180: fe98 4a3a 92d2 d83c d50b 893c c98f 853c
00000190: 47be e03c 27ab d83a 1e44 c7ba 71a5 973c
000001a0: fc2c 063b 6047 a33a 07ca 34ba f01a a43b
000001b0: 2d9c 533c 14ba c23c 1aac 013b 9bdf c03c
000001c0: fbd6 cbba faf7 50bc 51d6 c1bc 2496 74bc
000001d0: 989f deb9 0c7e 1cbc 9372 863c 0cb8 30bc
000001e0: 0a64 513b cb5b ff3c 5a63 473c 8c77 23bc
000001f0: 1754 b93b 695f ec3c 4c22 ac3c e357 bd3c
00000200: 82eb bc3c ae3a 37bb 0d37 c9bb 4d7f 8aba
00000210: 9b92 c63c 2233 733c 4a07 593c 5568 9438
00000220: 39e1 2c3c ed9b d13b 42fc ab3a 75db 173c
00000230: 0696 b83c 3c16 75bc 0a99 833b 5775 d93c
00000240: 7e18 e33b b02d 383c b2eb 853c cdf6 983c
00000250: 72ff 93bc 1c2e 923c 2aae e73c 452b 6f3c
00000260: 7dc0 a53c 1403 d23c 8ca6 703c b3c5 c83c
00000270: 7b7f 473c 6532 2c3b 0a18 893c 06fe ab37
00000280: b11b e5b9 774d 623c 497a d3b9 d4e9 6bbc
00000290: 23ef 5f3c 66d6 313c 0cc5 7e3c 9f39 2e3c
000002a0: 8120 6b3c d326 ca3c e6f4 8c3c 3e02 2cbc
000002b0: 2cb8 df3b e273 633c acfa 9dbb 92d2 72bb
000002c0: fd6b b03c 5a01 4ebc 424d 05bc 79b5 763b
000002d0: 000c 4b3b 0556 073d 2e24 d03c 520f c8bc
000002e0: 4fe6 b83c c312 b2bc 01ad b33c 676d 9d3c
000002f0: 48d4 ad3c 52f7 73bb 18e2 e73c ab79 9c3c
00000300: 4e2d ea3c b03e 063d 5df0 873c 56df d53b
00000310: db71 693b 34cb ccbb b49e 2fbc 5ccb f63a
00000320: 787b 443c 1186 983c 3b1a ca3c b609 cc3a
00000330: 49c0 73bb b2d1 153b 5786 1fb9 6ecf 2cbc
00000340: a0eb f53a d4f0 923c 46e7 423c 6fa2 df3c
00000350: de54 cc3c f2ef 063d 5e23 143c a0bd 293c
00000360: 51da 363b 2f88 af3b 0d8a e0bb 0f91 473c
00000370: 6bcd d13c 74df 433c 14e2 903b fae1 313b
00000380: 2061 e03c cb67 d0bb ffdd 9abb a99e bc3c
00000390: 6225 753c b960 f23c d7f3 d03a 8e8c b33c
000003a0: 85c6 6e3c c3fb ad3b bf02 8bbc 88d6 6c3c
000003b0: c734 073c 1ea9 c83c 3b76 343b 9497 043b
000003c0: fd91 973a a4ae 083a f746 e3bb 8d05 6e3c
000003d0: 0a4a 863c 7e5b 8c3c e3f5 a33c 7dc6 4a3b
000003e0: f3cb 523c 692d 0e3c 9118 75bb dc16 dd3c
000003f0: 0dd7 c8bb 8aeb 713c a86f 08ba 5c3e 89bb
-0.0023715564 0.0028237028 -0.010337561 0.01231675 0.0054613138 0.01875533 0.01591386 0.0075296233
-0.006791151 -0.0028773001 0.014213115 -0.008985167 0.025981348 0.0025832702 -0.0126093095 0.0074871834
0.021550264 -0.002071021 0.015544192 0.008795023 0.01229938 0.01709734 -0.0016549175 -0.001147331
-0.0042920876 0.01903084 -0.014072375 0.009193123 0.0041195923 -0.0033941134 0.0014794422 -0.0101131955
0.012252381 0.029447706 0.012209348 0.011141612 0.029411875 0.014118572 0.01584538 0.009189798
0.020785492 -0.008897131 0.02127865 0.012536603 0.011352003 0.0004998657 0.023098446 -0.003050934
-0.012769296 0.007813274 0.000120838326 -0.011496671 -0.0021058668 0.013159372 0.013582878 -0.004365804
0.007968035 -0.013656309 0.020403642 0.008890498 0.007448284 0.0149333915 0.0037387346 0.018022131
-0.01474784 -0.0021750508 0.010954564 0.024501221 0.017740011 0.0034706953 -0.014585511 0.02203639
0.0039796983 0.015215116 -0.0024727085 0.014892114 -0.0057918015 0.0058656745 0.018492356 0.0016438087
0.0017284342 0.023960935 -0.0043961704 -0.006941565 0.009101653 0.020136882 0.011021435 -0.0056424155
0.012706229 0.00068395893 -0.006188226 0.0052500134 -0.011199799 0.0015818259 0.029145118 0.030916937
0.0007728486 0.026467595 0.016729275 0.016303914 0.027434481 0.00165305 -0.0015202796 0.018511506
0.002047359 0.0012457184 -0.00068965595 0.005008094 0.012915653 0.02377037 0.0019786418 0.023544123
-0.001555174 -0.012754435 -0.023661764 -0.014928374 -0.00042462046 -0.009551536 0.016412055 -0.010786068
0.0031950497 0.0311717 0.012169683 -0.009977233 0.0056557762 0.028854089 0.021012448 0.023113197
0.023061518 -0.002795856 -0.006140596 -0.0010566503 0.024239829 0.014843734 0.013246367 7.076623e-05
0.010551744 0.0063967616 0.0013121443 0.009268631 0.022532474 -0.014958914 0.0040160464 0.02654521
0.00693041 0.0112413615 0.01634774 0.018672371 -0.018066142 0.017844252 0.02828129 0.014597719
0.020233387 0.025636233 0.014688145 0.024508333 0.01217639 0.0026275155 0.016735096 2.0503077e-05
-0.00043698915 0.013812414 -0.00040336166 -0.014399011 0.0136678545 0.010854339 0.015549909 0.010633855
0.014351011 0.024676716 0.01720662 -0.010498581 0.006827375 0.013882609 -0.004821142 -0.003705178
0.021535868 -0.012573564 -0.0081360955 0.0037644787 0.0030982494 0.03304102 0.025407877 -0.024421368
0.022570757 -0.021737462 0.02193308 0.019217206 0.021219388 -0.0037226272 0.028306052 0.019100985
0.028586056 0.032774627 0.016594106 0.006526868 0.0035620842 -0.0062498096 -0.01071899 0.0018828916
0.011992328 0.018618615 0.02467071 0.0015566859 -0.0037193468 0.0022860584 -0.00015213467 -0.010547502
0.0018762238 0.017937101 0.01189596 0.027299134 0.024942812 0.032943673 0.009041635 0.0103601515
0.0027901123 0.0053568105 -0.0068523944 0.012180581 0.025610646 0.011955131 0.004421482 0.002714275
0.027390063 -0.0063600293 -0.004726171 0.023024874 0.014962526 0.029587137 0.001594181 0.021917608
0.014573698 0.0053095534 -0.016969083 0.014455445 0.008252329 0.024494704 0.002753629 0.002023195
0.0011563894 0.0005214012 -0.00693595 0.014527691 0.016392726 0.01713347 0.020014709 0.0030941062
0.012866008 0.008677819 -0.0037398676 0.02698844 -0.0061291517 0.01476563 -0.00052046264 -0.004188342

network_body._body_endoder.seq_layers.2.weight f4 [256, 256]
00000000: 1163 5cbc 895e 2f3d 737e 013e bfe0 ecbb
00000010: 85b0 f6bd ce34 01be 5de1 c8bd cb2f 303d
00000020: f07e 03bc 7518 2b3e 0f8c 923d 728d 4fbd
00000030: 1212 ce3d c4df 3c3d adf1 ad3d 4ff8 55bd
00000040: 18a2 68bd 0c57 56bc 0307 053e d228 153d
00000050: 8f0c febc 0e4e 373c d334 bd3c cbd9 953d
00000060: 9069 5bbd 76d9 c5bc be96 963d a62e 0ebd
00000070: 07c7 a6bd 6761 053b 86c1 ef3c b7fd 80bd
00000080: 4498 9dbc c715 673d e7c4 53bd f156 abbc
00000090: cf85 a33d 9a29 87bd 2527 c9bd 703c beba
000000a0: 9132 82bd 2537 d6bd 455c af3d 2e34 60bd
000000b0: a945 3a3d 42e6 01bd 6ca2 323d a48c 5f3c
000000c0: ba98 98bd a129 04bd 3515 ee3d 8291 f43b
000000d0: 1a96 93bd 951e 92bc 53fd 1ebc 8e15 c33a
000000e0: 7cf9 e23c 1109 0bbc af54 bc3c 3393 0c3d
000000f0: 9667 a1bc 358f 28be 742c f739 0014 f7bd
00000100: ed3e d4bd 1810 ac3d 4864 60bd c90f 11be
00000110: fbef bd3a e78b 963a b494 a3bd b0cf 50be
00000120: bbfa 753d 1130 103d f078 fbbc 5013 94bc
00000130: cfc7 153c edff 983d d5bd 253d f309 703c
00000140: 1022 423c 95a3 85bd a299 583d fbc2 633d
00000150: e66d 073c ce69 d3bd b8a4 e63c 6577 edb9
00000160: 38f9 78bd 0088 b0bc c808 86bc b003 adbd
00000170: c738 c8bc 61a9 c13c b582 aebd 2bbb 4abe
00000180: 6572 7fbd 9242 a9bc d16d 9abd 05e1 15bd
00000190: d820 b6bb c943 f4bd c01f 0c3d 4805 56bd
000001a0: d884 2c3e 3ac1 f2bb de0f 13bd 1fbb b73b
000001b0: e967 b9bd 287c a8bc 4892 4a3d 3b8b 8fbd
000001c0: 8bbe d23c 3662 99bc 90de 8f3c b0b5 d43c
000001d0: 7c96 c9bd 374a 883c e290 78bc d2cd 253d
000001e0: f97b febc 84bb b4bd 886e 9abd 7dc8 74bd
000001f0: ce29 2c3b 73da b5bc a4ca bebd 6d56 8bbd
00000200: 4206 44be 16f1 073d c56e d2bd 9c99 2f3c
00000210: 14d7 55bd c1cc a33d c31d 21bd 2ba9 173d
00000220: d419 fbbc cc3d 8cbc 2dd9 95bc 6968 e9bb
00000230: 37fc f2bd adf5 143e 9157 98bd ad9f 00be
00000240: 5344 223d f801 4dbc 8b7d 85bd 7a86 c0bd
00000250: def3 72bd b7b5 f73d 253f a03d a422 413d
00000260: 3098 54bd 86dc cebd 2382 f3ba c863 303c
00000270: 57b1 593d af7c aa3c 4192 303b 9138 aabc
00000280: cd4a 92bd c622 933c 21d1 4ebd 9b46 afbd
00000290: eb7c 87bd 0b8c a43b 34cb c0bd a43b a7bc
000002a0: 25cf 733d 66c6 273d 975f 94bc c3ce 443d
000002b0: 4003 893d 690c 39be 951a 8c3d b56e 58bd
000002c0: 01bc 423d 9757 9cbc ab12 493d c93b f43c
000002d0: 5110 ce3c 789b 06be 6d02 b33d ebf4 053d
000002e0: 8dcb 043e cfc8 433d 93f3 09bc 68db f2bd
000002f0: a724 a5bc 64aa 3ebd c23e 1cbd 4946 e0bc
00000300: 1199 193d 94a3 dbbc 2812 003d 95b2 293d
00000310: a013 6fbd 8c13 313d 1111 453d 5919 73bc
00000320: 8ff8 70bd ecfb 4ebb f161 d43d d1ff 88bd
00000330: e2de 66bd 967e 05bd 61c9 403d e9b0 053d
00000340: 4a6e 333d 2879 febd 7901 17bd eabf 04be
00000350: 4703 89bd b282 943d 26b4 d83b e5cb 2bbd
00000360: 8189 afbc 4ac1 04bd 4353 623d f8b6 15be
00000370: a928 64bd 3735 8cbd 9622 58bd 82b6 ca3d
00000380: f728 b03c b05c 9dbc c58f 793d 3a37 88bc
00000390: ad0e 6a3d 6b57 b0bd 9be8 953d 7980 94bc
000003a0: 77ab 4c3c c1a7 97bb 30a7 773d 7665 673b
000003b0: d735 4cbd 0719 37bc a3f2 5bbc 0510 81bd
000003c0: b0bf 98bd 6350 a7bd ca47 e1bd d1c7 9aba
000003d0: f015 15be a244 bebc 1108 d73b 9b30 983d
000003e0: 112f 003c 3a5f ae3c da7e 213d ca46 dbbd
000003f0: 3100 b33d b377 343d 768e 973d bd96 fcbd
-0.013451354 0.042814765 0.12645893 -0.0072289403 -0.12045387 -0.126178 -0.0980861 0.04301433
-0.00802587 0.16708548 0.0715562 -0.050672002 0.100620404 0.046111837 0.084933616 -0.05223876
-0.05679521 -0.013082277 0.12990956 0.036415882 -0.031011848 0.011188043 0.023096478 0.07316931
-0.05356747 -0.024151545 0.073529705 -0.034712456 -0.0814343 0.0020352246 0.029267084 -0.06298392
-0.019237645 0.056417253 -0.051701453 -0.02091548 0.07984506 -0.06599732 -0.09821919 -0.0014513861
-0.06357301 -0.10459737 0.08562521 -0.054737262 0.04547659 -0.03171373 0.04361193 0.013644371
-0.07451005 -0.032266263 0.11625139 0.007463635 -0.07206364 -0.017836848 -0.009703952 0.0014883743
0.027706854 -0.008486048 0.022989599 0.034320068 -0.019702714 -0.16460879 0.0004714463 -0.120643616
-0.10363565 0.08401507 -0.054783136 -0.14166178 0.0014491075 0.0011485786 -0.07987347 -0.20391726
0.06005357 0.03520209 -0.030697316 -0.018075615 0.009141876 0.07470689 0.04046424 0.01465081
0.011848941 -0.065253414 0.05288089 0.05560587 0.008265948 -0.10322915 0.028154716 -0.00045293118
-0.06078455 -0.021549225 -0.01636161 -0.08447969 -0.024441136 0.023640336 -0.08521024 -0.19797961
-0.062364955 -0.020661626 -0.07540477 -0.03659155 -0.0055581145 -0.119269915 0.034209967 -0.05225113
0.16847551 -0.0074082883 -0.035903804 0.0056070234 -0.090530224 -0.020567015 0.04945591 -0.07008978
0.025725624 -0.018723588 0.01756218 0.025965542 -0.09843156 0.01663695 -0.0151712615 0.04047949
-0.031064974 -0.08824828 -0.075406134 -0.059761513 0.0026270035 -0.022198891 -0.093159944 -0.06803594
-0.19143012 0.0331889 -0.10275034 0.010717776 -0.052207068 0.07998038 -0.039335024 0.037026566
-0.030651964 -0.01711931 -0.018292034 -0.0071230424 -0.118645124 0.14546843 -0.07438577 -0.12560911
0.03961594 -0.012512676 -0.06518086 -0.09400649 -0.0593146 0.12095206 0.07824544 0.047152176
-0.05190295 -0.10100655 -0.0018578212 0.010765977 0.05314764 0.020811407 0.0026942643 -0.020778926
-0.07143173 0.017960917 -0.05049241 -0.08558389 -0.06615623 0.0050215772 -0.09413758 -0.020414181
0.05952372 0.040960692 -0.018111987 0.048048746 0.06690073 -0.1807114 0.068410076 -0.052839953
0.047542576 -0.019084735 0.04909007 0.029813664 0.025154265 -0.13145244 0.08740697 0.032704275
0.12968273 0.047798928 -0.008419889 -0.11858255 -0.020159079 -0.046549216 -0.038145788 -0.027377265
0.03749949 -0.026811399 0.031267315 0.041430075 -0.058368325 0.043231532 0.04811198 -0.014837586
-0.058830794 -0.0031583263 0.10370243 -0.06689418 -0.0563649 -0.032591425 0.04706705 0.032639418
0.04380635 -0.124254525 -0.03686664 -0.12963834 -0.06690078 0.07251491 0.0066132722 -0.041942496
-0.021427872 -0.032410897 0.055255186 -0.14620578 -0.05570284 -0.068460874 -0.05276736 0.09898092
0.021503909 -0.019209236 0.060928125 -0.016627897 0.057142902 -0.08610424 0.073197566 -0.018127667
0.012492052 -0.004628152 0.060462177 0.0035308278 -0.049856033 -0.011175401 -0.013424548 -0.063018836
-0.074584365 -0.081696294 -0.11000021 -0.0011808818 -0.1455915 -0.023226086 0.006562241 0.07431146
0.0078237215 0.021285642 0.039427616 -0.10706861 0.08740271 0.044059467 0.07400219 -0.123334385

network_body._body_endoder.seq_layers.2.bias f4 [256]
00000000: 8dac 6abc 6f6d c73c 15ff 34ba 0c86 d43b
00000010: 15f8 5039 5f20 13bc 0ae7 e93b 6f48 863c
00000020: 28e5 6ebc ff1d c03c 9862 3d3c 99ec ce3c
00000030: adf6 d03b a0f1 84ba 875c 81bc bf02 7f3c
00000040: 9a0c a23c c5e7 6c3c e20a 3d3c fa53 953c
00000050: 695a bdbb 1b37 b13c 4c48 16bd e17d fbbb
00000060: f6e7 0a3c 7118 ae3c 98e0 d63c 2b7c c8bb
00000070: 47a6 993b aefa 9cb8 b5fc 9a3a 42c2 603c
00000080: 0df5 46bc 3975 b03c 4d9d f13c cf4e 57bc
00000090: bf8d 9ebc 605b 873b ea6a 943c eea7 96bc
000000a0: 5dba 38bc 9836 143c 6334 a43c efe5 1e3b
000000b0: 3222 ee3a 0d10 b13b e78a 503c 03eb 6e3c
000000c0: 20ce 8a3c deaa db3b 545b 7dbc e4ab 2cbc
000000d0: 67f2 fb3c 99e9 3fbc 5a01 3b3c 4428 863b
000000e0: 59ef 853c 6789 693c 89fd 843c 0477 a13b
000000f0: 1062 8a3c 53db bb3c 9a45 0abc b74c 4fbc
00000100: 3a8a ae3c 62c1 44bc 67f3 b73c 8693 533c
00000110: 3152 7d3c d5d1 543c ae2d 0fbc eb24 773b
00000120: b37e 803c f127 c23b 2759 65bc f59a 0cbb
00000130: 09f0 af3c 3ae8 763c 8cf0 833c 6eb9 d9bb
00000140: d566 b73c 9e70 ad3a 0384 983c e922 313c
00000150: 0f87 553c 02ae 0fbc 7942 36bc 1a37 4c3c
00000160: c95b d33c 3dfa 883c 08e7 903c 0b13 a1bc
00000170: f5c9 e53b b6ac b1bb 4ee3 49bc 8172 d0bb
00000180: adbf 963c 7675 0f3c 3021 bc3a d598 143d
00000190: 699c 09bc 8daf a93c 16e6 6bbc 0d52 a4bc
000001a0: 80e3 a23c 7f9c 92b9 21d5 95bc 6c67 4c3c
000001b0: d5be a33c 7f0a babc 8d64 44bb 87f0 77bc
000001c0: fcf3 4d3c d48f b13c 2550 cc3c 9c1f db3c
000001d0: 48cd 793c 52c2 063c 0c02 9a3c 98c2 6b3c
000001e0: 24a7 67bc fa63 f4bb 3df9 703c 4271 a73c
000001f0: 3f94 ae3c 85a9 6abc b388 9e3c 3c3a b13b
00000200: 1b8e cf3c 920f 7d3c 25d0 833c c6ae 013c
00000210: 870d 4dbb e3e3 f53c 6b35 183c 2073 f03c
00000220: ff58 373c 73c6 8bbc c39f 4abc 9439 ba3c
00000230: 5a55 0bbc a99c 683b 3966 9a3c cb80 ce39
00000240: 3b4b a6bb ff2a ffbb 8b3e 963c d34a 683b
00000250: e0ed a8bb 1770 d0bb e699 773c bb48 2e3c
00000260: e7b8 86bb b554 a1bb 6205 46bc 90e1 ad3c
00000270: 9f04 fdba 9a77 78bc 9714 c33c 1f40 0b3d
00000280: fa04 0bbb 2fad 393c c3a0 aebb b6f5 9cba
00000290: 98fe 3abb e884 a53c c35a 55bb 4e18 223c
000002a0: ba4b a73c 37b8 753c f2c1 463c bfef 6b3c
000002b0: 2110 5abc 1a22 b43c c7e7 883c df05 483c
000002c0: 8410 693c ebb1 b03c 2272 d13c cb1e ed3b
000002d0: 6770 a3bb 86d6 9a3c 14df 9f3c df99 f93c
000002e0: f36c 69bb 1484 523c bc24 b63c b4b0 ba3c
000002f0: cb9a 9b3c 7e32 76bc d00f ce3c 45a5 ca3c
00000300: 2843 e7bc 5f77 d83c f7b8 523c 4d2e 07bc
00000310: 2ac3 0b3b 09fe f2ba 2868 e6bb 7eb5 9d3c
00000320: 9d76 1bbb 4e1b 10bb d8f8 c53c 7af1 bd3c
00000330: b174 363c 8115 7cba 85ce 433c ba37 9abc
00000340: 9046 49bc 4396 873c 12f0 e1bb 99ab bf3c
00000350: c04c 913c 4934 34bc d171 943c b28d 44bc
00000360: 6121 923c a0d8 25bb df3d 17bc 4a9e e93c
00000370: 1a30 153c 2a67 b33c d3ab 863c 5947 0f3a
00000380: 2faa b23b 37b2 53bc 50a2 28bc 7b8c b6bb
00000390: f189 dd3c 8d3e d73c 87f2 8c3c 3ae7 2a3c
000003a0: 44c3 c73c 5989 d93b fafd 813b 04cf 143c
000003b0: 4363 c5bb b011 8e3c 2697 13bc 09e9 133c
000003c0: 1501 9bbc 5003 2e3c 86ec 953c 4767 32bc
000003d0: 91e7 1cbc ffd7 74bb 3c5c 5a3c b5fd b23c
000003e0: 53a8 d83c 0a37 2c3d 0332 6a3b a270 efbb
000003f0: 9efd e53c facb 913b 6602 ba3c 0635 993c
-0.014323366 0.024344174 -0.0006904465 0.006485706 0.00019928844 -0.008979886 0.0071381377 0.01639196
-0.014581002 0.023451803 0.011559151 0.025259303 0.0063770623 -0.0010142811 -0.01579119 0.01556462
0.0197814 0.014459555 0.011538239 0.01822852 -0.0057786 0.021632722 -0.03669004 -0.007674918
0.008478155 0.021251889 0.026230142 -0.0061183176 0.0046890113 -7.4853524e-05 0.001182458 0.01371819
-0.012143386 0.021540271 0.029493952 -0.013141348 -0.0193547 0.004130766 0.018117387 -0.018390622
-0.011274901 0.009046219 0.020044511 0.0024245938 0.001816815 0.0054035247 0.012728429 0.014582398
0.016943991 0.0067037186 -0.015463669 -0.010539029 0.030755235 -0.011713409 0.011413896 0.0040941555
0.016349481 0.014253951 0.016234176 0.004927518 0.016892463 0.02293173 -0.008439446 -0.012652568
0.021306146 -0.012008997 0.02245493 0.01291359 0.0154614905 0.012989481 -0.008738918 0.0037711214
0.015685415 0.0059251715 -0.013998306 -0.0021454666 0.021476762 0.015070016 0.016105913 -0.0066444194
0.022387901 0.0013232415 0.018617636 0.010811546 0.013032689 -0.008769514 -0.011124247 0.012464309
0.025800603 0.016720885 0.01768829 -0.0196624 0.0070126005 -0.0054222 -0.01232226 -0.006361306
0.018401945 0.008756032 0.0014353152 0.036278564 -0.0083991075 0.020713592 -0.0143981185 -0.020058656
0.019883871 -0.0002796389 -0.018290104 0.01247583 0.019988457 -0.022710083 -0.002996716 -0.01513303
0.012570377 0.021675028 0.02494056 0.026748471 0.015246697 0.0082250405 0.018799804 0.0143896565
-0.0141389705 -0.007458207 0.014707861 0.020439748 0.021310924 -0.014322643 0.019352293 0.0054085534
0.025336316 0.015445607 0.016090462 0.007915204 -0.003128858 0.030015891 0.00929008 0.02935177
0.011190652 -0.017062401 -0.012367192 0.022732534 -0.008504236 0.0035493767 0.018847572 0.0003938734
-0.005074886 -0.007787108 0.01834037 0.003544499 -0.00515531 -0.0063610184 0.015112376 0.0106374575
-0.0041113975 -0.004923428 -0.012086244 0.02122572 -0.0019303745 -0.015165234 0.023813529 0.033996698
-0.0021212683 0.011332794 -0.005329223 -0.0011975083 -0.0028533097 0.020204976 -0.003255532 0.00989349
0.020421851 0.0149975335 0.012131201 0.014400422 -0.0133095095 0.021988917 0.016712083 0.012208431
0.014225129 0.021569213 0.025567118 0.007236337 -0.0049877646 0.01890112 0.019515552 0.03046888
-0.0035617917 0.012848873 0.022234313 0.022789337 0.01899471 -0.015026687 0.025154024 0.02473701
-0.028230265 0.026424108 0.012861482 -0.008250785 0.0021326044 -0.0018538843 -0.0070314594 0.019251581
-0.0023721822 -0.002198893 0.02416651 0.023186434 0.01113622 -0.00096162414 0.011951094 -0.0188254
-0.01228489 0.016551143 -0.0068950737 0.023397254 0.017736793 -0.010998794 0.018120678 -0.011996673
0.017838182 -0.002530612 -0.00923106 0.02851786 0.009105707 0.021899778 0.016439354 0.0005465649
0.0054524164 -0.012920908 -0.010292605 -0.005570946 0.027043315 0.026274944 0.01720549 0.010431105
0.024385102 0.0066386876 0.003967044 0.0090825595 -0.006023796 0.017342418 -0.009008205 0.009027728
-0.018921414 0.010620907 0.01830126 -0.010888881 -0.009576694 -0.003736019 0.013327654 0.021849493
0.02644745 0.042044677 0.0035735376 -0.007307128 0.028075036 0.0044493647 0.022706222 0.018702041

network_body._body_endoder.seq_layers.4.weight f4 [256, 256]
00000000: bb86 0a3c c87e 4b3d 8a18 043d e121 323d
00000010: 0e23 f2bb b4dc 333d 23a4 cd3c 8347 c9bd
00000020: 9604 83bb af93 0e3c 1bf9 40bd 6936 4d3c
00000030: 25e9 3b3c e615 a73b d88c 2dbd 58ca d0bc
00000040: db8c 643c 92fc febc 5627 7a3d 5dc8 e4bb
00000050: 6646 b93c 5c59 bf3c 6cc8 f3bc b6b4 7fbd
00000060: c67a 10bd 674e ba3c fc58 3c3d 5d9d b93d
00000070: 9220 00be aeee 923d e083 fbbc 6c80 883d
00000080: ab7d cd3d e9cd 19bb 7e89 80bd 4d21 80bd
00000090: 9565 3bbd 6d7f c13d dc7c f13c d9fb b1ba
000000a0: 50c5 a73d 69f2 fdbd 3ede fabc 92aa a93d
000000b0: f026 0cbd 254a 883c 772a b03c dce6 f1bd
000000c0: dff1 d2bc 6982 893d a704 813d b91c 783d
000000d0: c430 36bc 55eb 733b 0f85 4a3c 3e05 7e3d
000000e0: b6c6 833c 3eda 1d3d c104 5bbd 20c8 103d
000000f0: 8284 af3d 62f8 e9bc a588 4abd 7642 c43c
00000100: f796 8cbb 5f4d 8dbc e9da 573d c64d 203d
00000110: b500 313d d3f3 e7bd 2814 193e 4712 dbbd
00000120: e29d 9abd 7ff8 573d cea9 12bd 4a18 db3d
00000130: a2b5 08be e459 2f3d 5c16 fdbc b034 163c
00000140: fbef e83c 9503 11bd 21c5 23be 841b f73d
00000150: 155d 9f3d e768 123d 0c18 ee3d c1e5 9ebb
00000160: b706 0ebe 5536 0cbd 9149 f3bd 66f6 efbd
00000170: b993 2cbd 57d9 33bc 123d 27bd 53c6 ecbb
00000180: 32e7 58bc 8503 b23c afa7 a23d 9a5e d03c
00000190: e478 abbc db9a b7bd 5466 86bd 9c01 43bc
000001a0: ea3c 24bd d8cf 99bd 173f fbbc c972 3b3d
000001b0: 953c 903d 02e4 333d 34a7 47bc f78e 843d
000001c0: b8aa 03bd 5957 aebc 5a6d 33bd 1fe5 dfbd
000001d0: bf98 28bd 0bdd 3a3d db89 d9bd bbcc d43c
000001e0: fda0 d0bc 3490 4f3d a8ce a4bc ece4 20bd
000001f0: fed1 583d 7703 adbc 1245 8f3c 9fa5 f9bc
00000200: a85a cfbc 1234 cfbd f14d 9dbd 4c4f 533c
00000210: af06 a43d 9231 593d a941 a1bc f3d8 853d
00000220: 8553 283c 1bb1 c33d 81da 333e 48c6 aabd
00000230: fa4f 9c3c 2f59 9cbc 9dcd e23c 9e5a b1bd
00000240: 1c8d cc3d 0e81 343d d665 c33c a758 183d
00000250: 38c3 c53c 5b9d ed3b e4f3 c53c 00e1 25bd
00000260: 7e7a 143e 95f0 d13c 7e53 833d 6c9e 8b3d
00000270: 8427 083e be88 ef3a 75b7 e3bd a3c2 8ebd
00000280: 571a 863d c13a 8abd b4ee a93d 9e76 11be
00000290: 59d5 a83d 8d25 e03d 0a03 9b3d de0b 1abd
000002a0: 684a febd 6e04 df3b cd98 4a3b 9a3d c83d
000002b0: 6650 b4bd 19b8 3bbd 0a71 8e3c 5d9f c6bd
000002c0: b515 803c f7ed 90bd 9d14 a73d d207 38bd
000002d0: 87cc af3d 2bcb 73bd f230 6abd 933c 5e3d
000002e0: 1418 a1bd 3b87 0bbd 6d49 423b 4a5f 2b3d
000002f0: 6a35 a1bc ccd6 383d c030 80bd 1f85 9c3d
00000300: d6d3 4a3d 6bbe 02bc f3ad 95bd f265 89bd
00000310: 04af be3b 8e94 5cbd 2253 433d b6f6 8bbd
00000320: 850b 85bb 547d 48bc 5ce0 6bbd 8a3f bdbc
00000330: 847d 5c3d cf04 cb3c dc2b 1abc 38cc 233d
00000340: c688 903b 08c2 a8bd 4ec4 103b 2e99 f5bb
00000350: 7252 b6bd c2a4 853d 8a7a 523d 2f20 493c
00000360: 16d7 023d 399a cc3c 8e59 963c 9483 e2bd
00000370: 0942 98bd 67a8 81bc c63b 26bd 5d63 7e3d
00000380: 2b77 c2bc 935f 1bbd 1f0e fd3d c007 b1bd
00000390: a035 9dbb 97d4 513b 5384 0abe 426d ac3c
000003a0: 893e a4bb 58e2 13bd 7852 5ebd 71e8 083d
000003b0: 7079 2bbd c44a 83bd 11ac 073e c6f7 41bb
000003c0: 4c19 1e3e 1090 933d 2471 28bc 2bd2 2a3d
000003d0: 2d14 5a3d 0524 9f3d c65d 26bd 3935 3c3c
000003e0: 4ae3 f0bd f5c2 06be 4647 6bbd 6fe9 f8b9
000003f0: 4324 15be db12 c4bd 92fc 993c 7af6 d33c
0.008454974 0.049681455 0.032249965 0.04348934 -0.0073894328 0.04391165 0.02510268 -0.09828093
-0.0039983494 0.008702203 -0.047112565 0.012525179 0.01146916 0.005099046 -0.042370647 -0.02548711
0.013949598 -0.031126294 0.06107267 -0.006981893 0.022616576 0.02335804 -0.029758655 -0.0624282
-0.035273336 0.022742463 0.0459833 0.09063218 -0.12512425 0.07174431 -0.030702531 0.066651195
0.10033735 -0.002346868 -0.062762246 -0.062563516 -0.045751173 0.09448133 0.029478483 -0.0013579085
0.08191931 -0.12399752 -0.030623551 0.08284487 -0.03421682 0.016636917 0.021504624 -0.11811611
-0.025750099 0.06714327 0.062997155 0.060574267 -0.011120025 0.0037219126 0.012360825 0.062016718
0.016085964 0.03853821 -0.05347133 0.035347104 0.08570196 -0.028560821 -0.04944672 0.023957472
-0.0042904573 -0.017248807 0.052699003 0.03913667 0.043213565 -0.11325803 0.14949095 -0.106968455
-0.07549645 0.05272722 -0.03580647 0.10697992 -0.13350537 0.042810336 -0.03089445 0.009167835
0.028434744 -0.035403807 -0.15993167 0.12065795 0.07781426 0.035744574 0.1162568 -0.004849166
-0.13869749 -0.034231503 -0.11879266 -0.11716919 -0.042133067 -0.010977111 -0.040829726 -0.0072257905
-0.013238715 0.021730194 0.07942139 0.025435735 -0.020931669 -0.08965083 -0.06562486 -0.011902239
-0.040097155 -0.07510346 -0.030669732 0.045763765 0.07042805 0.043918617 -0.01218586 0.06472581
-0.032145232 -0.021281885 -0.043805458 -0.10932373 -0.041161295 0.04562096 -0.10621997 0.02597653
-0.02546739 0.050674632 -0.020118073 -0.039280817 0.05293464 -0.021119816 0.01748899 -0.030474482
-0.025311783 -0.101173535 -0.07680882 0.012897324 0.08009087 0.05302579 -0.01968463 0.065355204
0.010273819 0.095552646 0.17563821 -0.083386004 0.019081105 -0.019085495 0.027685935 -0.08659862
0.09987852 0.04406839 0.02385227 0.03719392 0.02414094 0.0072514242 0.024164148 -0.04049778
0.14499852 0.025627414 0.06412409 0.06817326 0.13296324 0.0018275005 -0.11118976 -0.06970718
0.06547993 -0.06749488 0.08297482 -0.14205405 0.08243818 0.10944662 0.07568939 -0.037608974
-0.124165356 0.006805948 0.003091383 0.097773746 -0.08804397 -0.045829866 0.017387886 -0.09698365
0.01563535 -0.07076638 0.081582285 -0.044929333 0.08583932 -0.059519928 -0.057175584 0.054256987
-0.07865921 -0.034064513 0.0029645816 0.04183892 -0.01967879 0.04512672 -0.06259298 0.07642578
0.04951843 -0.0079799695 -0.07308569 -0.06708898 0.0058192033 -0.05385261 0.047686704 -0.06834166
-0.004060211 -0.012236912 -0.057587013 -0.023101587 0.05383064 0.024782566 -0.009409871 0.03998968
0.004410836 -0.082401335 0.0022089663 -0.007495067 -0.08902444 0.06525566 0.051386394 0.01227574
0.031943403 0.024975883 0.01835325 -0.11060253 -0.0743447 -0.01582737 -0.04058435 0.06210648
-0.023738464 -0.037932944 0.12356209 -0.08644056 -0.0047976524 0.0032017583 -0.1352704 0.021048192
-0.0050123376 -0.03610453 -0.054277867 0.0334248 -0.04186386 -0.06410745 0.13249232 -0.0029597147
0.15439337 0.07205212 -0.010280881 0.041704338 0.053241897 0.07770542 -0.040616773 0.011487299
-0.11762102 -0.13160308 -0.05744102 -0.00047476168 -0.14564614 -0.09573909 0.018797193 0.025874365

network_body._body_endoder.seq_layers.4.bias f4 [256]
00000000: e1e0 0abc 0f94 ba3a c40e 943c bf90 a6bb
00000010: 0c83 4cbc 82a8 17bc 4c6c e0bb 51f3 cf3c
00000020: e4d8 853c f95f aa3c f17f dc3c 7fb3 6d3c
00000030: 6b61 973a 82f0 cc3c 6ff2 e33c cb47 963c
00000040: adfd 69bc 7ce7 873c 0a25 ca3c c81f bb3c
00000050: 8c5d b43c 28d1 13bc 26a2 943c eaa7 4c3c
00000060: c6e6 1dbc 86a0 d5bb c0ea c33c d2ab c43c
00000070: 5107 cb3c fae1 14bc 8a74 f0bb b102 683b
00000080: ed5d 8f3c d515 6cbb b555 c6bb f4de 48bc
00000090: 518e 8dbb b6fa b53c 7b9b 8e3c 96be 4cbc
000000a0: 5d8d d83c fc6d 5a3c d79b e63c cbec 82bb
000000b0: 0625 863c 79aa eb3c 5fa4 68bb d9df b03c
000000c0: 0887 6fba 820a 093c f048 37bc ea20 1dbc
000000d0: a0bd 963c 1dee 133c 60bc a6bb 6b10 a03c
000000e0: a920 983c aea0 913c 2ce5 1abc 8cea a73c
000000f0: 26fe a63c ece7 a7bb 9499 033c 1ed2 cb3c
00000100: 86d0 cfbb da66 c8bb f293 89bc 3097 573c
00000110: 2e8d c33c 1b0e af3c e3dc 0dbb c248 c2bb
00000120: 4000 ae3c 71ca c73c 8bf3 31bc 0ce9 d3bb
00000130: 3ad5 33bc fb59 24bc 921c 0abc 86dc edbb
00000140: 115a 8ebc cb12 1b3c 6a46 9d3c a769 1b3c
00000150: f70d 8e3c d328 ddbb 88ec 393c 01a6 bc3c
00000160: d638 e1bb 7dff 22bb 7f8b e43c 4e42 223c
00000170: a0c3 14bc 514f 89bb 113a 883c d4ee 993c
00000180: 57a5 e63c 4108 21bc 58b4 abba 0da0 cd3c
00000190: 4392 c63c 7d7c 5bbc 2561 2ebc 1206 04bc
000001a0: f76d d93c ad32 9abb 10cc 923c c99c 5bbb
000001b0: a4f9 1ebc 92d6 82bb 914b b63c 8297 a53c
000001c0: 61f7 d43c e48c c13c ae6d 94bc 9b42 d8bb
000001d0: 475f 2fbc a374 16bc 3ef5 d23c fce5 093c
000001e0: 75e0 a03c aea0 c23c a488 36bb f8d6 dabb
000001f0: 9c98 cd3a 4ef1 17bc ac56 be3c 0671 bb3c
00000200: 0044 813b 9ac4 13bc 0b64 0cbc 3656 ceba
00000210: 02ba bf3c 88b5 a73c caf8 ce3c 15a0 a7ba
00000220: d164 a13c dbd5 57b9 ebd6 fcb9 08e1 e9b9
00000230: b5d0 923b 7181 813b e15f bb3c e13b b23c
00000240: e99b 62bb 56a0 2ebc 9a93 9abb 02d6 e33c
00000250: b37c d43c 0361 6bbb 2f6a 4fbc 137a c33c
00000260: 0c59 79bc 3d19 963c 410d 873c a9c2 563c
00000270: d9ec a43c ab42 11bc b75c 1bbc 8352 dd3c
00000280: 054d 26bc 94ff d63b 8c2c bd3c 157c db3b
00000290: 4110 ea3b 8ade 153c 57e4 3d3c 64d4 dc3c
000002a0: 61f1 9e3b d91f 45bc 4d10 b23c e2e3 20bc
000002b0: 8cbf 3abb 0626 a43c fcf5 26bc 8ceb d43c
000002c0: 66e2 843c 8c64 9f3c a1bb a43c db97 c93c
000002d0: c752 cebb 0dce 12bc 57a3 90bb 34b5 8e3c
000002e0: 0f65 8f3c 82ec ed3c bdbc 38bc ea3c a73c
000002f0: aeb4 d4bb ae53 1d3c 6099 da3c fc67 c13c
00000300: 317a c73c b390 0fbc 14b2 3b39 526b 08bc
00000310: 2af3 1d3c 1d52 873c ae03 1ebc a5f0 603c
00000320: 67d0 a5bb 3f05 983c 03fd 37bc 4afc 4dbc
00000330: e8e7 bf3c a297 5d3c f850 413c 2042 d3bb
00000340: eff4 c23c e2f8 24bc 891d 1ebc abfa 40bc
00000350: 506f e33b 7c3e ca3c 2fee 623c e03a ba3c
00000360: 32e7 11bc 57e1 b4bb fb63 87bb ca6b d83c
00000370: cc10 8a3c 19a2 d03c 931d 31bb 3fb4 6dba
00000380: 29b9 debb 2bf9 a4bb 22a1 d33c de4f f03c
00000390: 5c3d b93c 3a9a 4d3b 5c19 c33b 95fb a33c
000003a0: 2879 c03c 2e55 9c3c 0b5d a73c 85ea c53c
000003b0: e3cb 963c e2c3 953c d66e 10bc 65f0 dd3c
000003c0: c088 d9bb 6035 55bc 78ee ae3c 1591 96bb
000003d0: b906 a33c bd6e ca3c 8b88 103b 220c 02bc
000003e0: f553 ac3c 701d 993c cd95 57bb 727b 773c
000003f0: ea28 7b3c 278c 733b 7277 c539 f1a5 a93c
-0.008476467 0.0014234799 0.018073447 -0.005083173 -0.012482416 -0.009256484 -0.0068488475 0.025384577
0.016338773 0.020797716 0.026916476 0.014508127 0.0011549419 0.025017027 0.027825562 0.01834478
-0.014281672 0.016589873 0.024675865 0.022842303 0.022017263 -0.009022035 0.018143725 0.012491206
-0.00963754 -0.00651938 0.023915648 0.024007712 0.024783762 -0.00908708 -0.0073381113 0.0035401995
0.017500842 -0.0036023755 -0.0060526975 -0.012260187 -0.004319944 0.022214275 0.017408123 -0.012496611
0.026434595 0.013331886 0.028150482 -0.003995513 0.016375076 0.028767811 -0.0035498363 0.021591114
-0.00091372477 0.008364322 -0.011186823 -0.009590367 0.018400967 0.009028939 -0.005088374 0.019539079
0.018570261 0.017776813 -0.009454053 0.020497583 0.02038486 -0.005124083 0.008032221 0.024880465
-0.0063419966 -0.0061157765 -0.016794179 0.0131586045 0.02387103 0.02136903 -0.0021646551 -0.0059290836
0.021240354 0.024388524 -0.010861288 -0.0064669903 -0.01097613 -0.010031219 -0.008429663 -0.0072589545
-0.017376931 0.00946493 0.019198615 0.009485639 0.017340643 -0.0067492514 0.011347897 0.023028376
-0.0068732304 -0.002487152 0.027898548 0.009903504 -0.009079844 -0.0041903635 0.01662925 0.01879064
0.028155012 -0.009828628 -0.0013100011 0.025100732 0.024239665 -0.01339638 -0.010643278 -0.008058088
0.026541693 -0.004705748 0.01791957 -0.00335102 -0.009703074 -0.003992864 0.02225283 0.020213846
0.025996866 0.023626752 -0.018118706 -0.006599737 -0.010703868 -0.009183082 0.025751706 0.008416649
0.01963828 0.023758259 -0.002785244 -0.0066784583 0.001568574 -0.00927384 0.023234688 0.022881042
0.003944874 -0.009019041 -0.008568774 -0.0015742246 0.023404125 0.020472303 0.025265116 -0.0012788797
0.019701393 -0.00020583665 -0.00048225312 -0.00044608884 0.004480446 0.003952198 0.022872867 0.021757068
-0.0034577793 -0.010658344 -0.0047173025 0.027812008 0.025938367 -0.0035915978 -0.0126595935 0.02386192
-0.015218984 0.018322581 0.016485812 0.013107934 0.020132469 -0.008865993 -0.009482554 0.027016884
-0.010150199 0.006561229 0.02309253 0.0066981413 0.007143051 0.009147296 0.011590085 0.026956744
0.004850552 -0.012031519 0.021736288 -0.0098199565 -0.0028495518 0.020037662 -0.010190483 0.025991224
0.016221236 0.019457124 0.020109 0.024608543 -0.006296489 -0.008960259 -0.004414003 0.017420389
0.017504243 0.02904344 -0.011275467 0.020414788 -0.0064912653 0.00960247 0.026684463 0.023609154
0.024350258 -0.008762526 0.00017900049 -0.008326368 0.009640494 0.016518647 -0.009644432 0.013729249
-0.005060244 0.018557189 -0.011229756 -0.012572357 0.023426011 0.013524922 0.01179909 -0.0064470917
0.023798434 -0.010069104 -0.009650596 -0.011778514 0.0069407597 0.024687998 0.013850733 0.022733152
-0.008905219 -0.0055200267 -0.0041317916 0.026418585 0.016853712 0.02546792 -0.0027025684 -0.0009067691
-0.006796975 -0.005034586 0.02583367 0.029334959 0.022612266 0.0031372444 0.005953951 0.020017425
0.023495272 0.019083586 0.020430109 0.02415968 0.018407768 0.01828188 -0.008815488 0.027092168
-0.0066386163 -0.013013214 0.021353945 -0.004594932 0.019900667 0.024711007 0.0022054042 -0.007937463
0.021036128 0.018690795 -0.0032895685 0.015105115 0.015329579 0.0037162395 0.00037663762 0.02070901

action_model._continuous_distribution.log_sigma f4 [1, 2]
00000000: e8bc a5bd 7d1b 36be
-0.08092672 -0.17783923

action_model._continuous_distribution.mu.weight f4 [2, 256]
00000000: 9b4d 823b 4890 d63c fa14 fe3c d7dd 243d
00000010: a39a 163d 01e9 f53c e835 88bc 55df cc3b
00000020: 226b 5a3c 291d 60bb 5542 acbc da2d db3b
00000030: a273 d5bc 8e88 1abd 1a6b 94bc a4fb ee3b
00000040: d2ae 4fbc c4fd cdbc cd01 e8bc d5c8 5dbc
00000050: 7419 043c eb99 f7bb 5c6c 903c f426 2abd
00000060: beb3 86bc e964 223d f117 6fbb eab3 ad3a
00000070: 3ee6 98bb 1eb5 073b c925 433d 98c4 4fbc
00000080: 1140 bdbc 48fe 1a3d bf47 013d eaae 003c
00000090: 328c 4b3d a503 e1b8 91ea 25bd f8ab 933a
000000a0: b91a f13b 1d5a a23c ab9e 1bbd 9d88 883a
000000b0: 1dd1 61bd 6ec2 86bc 2af3 133d 15a1 8fbb
000000c0: 1f4c 04bc d4a7 393d 3412 123d d1b8 763d
000000d0: 757d c53b 82c1 323d 97ed a1bc ebf5 03bd
000000e0: 51dd 95bc 743c 3b3b c99d ea3b 6f3b 993c
000000f0: 90dc f13b df62 023d ae81 dc3c ecd1 eebb
00000100: d939 0bbc e7d4 423d 8b5b 353a 2661 84bd
00000110: d95c 10bb f6ba 17bd a281 8b3d 724b 22bb
00000120: 796c 05bd 06f0 88bc eaf0 233d 01ef 8cbc
00000130: cd60 ed3a bb84 4d3c a0ca 1ebc da86 8dbc
00000140: 6463 933b 75cc 513d e25f b2bc e363 14bd
00000150: 25e8 5e3c 8b90 1fbb 6609 713b 3a3e f3bb
00000160: ab4a 96bc 9c39 d0bc 0d58 57bd 056c 09bd
00000170: 6ce8 fd3c 925c 58bc 876f 9fbc 178a 16bd
00000180: a204 0cbd 6485 533d 5150 143d 9554 e8bc
00000190: d165 c1bc 1fb2 ae3c 38d5 bab9 27f3 153d
000001a0: d698 50bc 8ad3 373d 2c60 8b3b 213e 27bc
000001b0: 9db7 143d 31dd 943b 4560 20bd c6ec 1f3c
000001c0: 0a99 8abc 5335 03ba 2c76 833c e82e b63c
000001d0: c5f1 68bb 6a77 db3c 51c8 fabb 1fbf dbbc
000001e0: bec9 0abb bad0 b9bc ade3 823b 6450 6f3d
000001f0: 36ee 0f3d 0eae 0f3a 0c27 04bc 41f1 9e3b
00000200: 7743 303d 15b1 3b3d e7fb 46bc 8a2f b4bc
00000210: eca9 e93b 742e 903c 4bf7 efb9 aa8b 18bd
00000220: 46a7 cb3b fcf8 c0bc a8bb 073c f192 85bc
00000230: e19a 0a3d 5d4d 0dbd a152 cdbc 822a 67ba
00000240: abc9 0fba d9ed 3f3a 624c ce3c 6e09 14bd
00000250: 9af0 b9bb 71f7 85bc 8e02 793c 9634 843b
00000260: 7add b5bb bc5b f2bc a01f 413c db6f 273c
00000270: 5e22 24bd d064 9f3c 5ac2 b33c 30ce 8fb9
00000280: ceee 1f3b b1c4 483d 1567 59bc 8ac7 02bd
00000290: 4132 3c3d c2bd 4cbd c867 373c 7d20 e7bc
000002a0: cdd4 933c eeec b33c 0ff9 42bd 9781 84bb
000002b0: eb7a 77bc f374 3b39 4a59 cb3c 753f 8a3a
000002c0: 644f 2e3d 7db4 9d3c 2e69 e43b 4dad 813b
000002d0: ac5a 44bc 39dd 2a3d e34b abbc 121c e3bc
000002e0: e9f2 953b 8190 31bd 0d42 803b 98e8 38bd
000002f0: e6df d43c 79c9 023d 5e59 bcbc c9ab 1bbc
00000300: fb6b 80bc a284 213d c041 053d 2296 053d
00000310: af15 043b 2338 10bd 085e 35bc 6dce bbbc
00000320: 9b8f 553d f080 0d3c d447 903c f3ff cbbb
00000330: 7c7b 4eba 86f2 473c 3e95 9cbc 402f 203d
00000340: 62a7 b9bc cc06 333d fcd0 12bc 3b98 c93c
00000350: b52e c53c 1463 ccbc f83e 1fbd 214b 0abd
00000360: a2c5 423d 2939 3a3c 9e75 873d 9657 a2bc
00000370: b717 203d 5e79 f2bb 94ea c0bc a7f9 83bc
00000380: caff 323c eb07 5d3d 8e32 94bc b434 bebc
00000390: e87d 51bd edf1 493c 4c38 153d db38 70bc
000003a0: c36e 273b 1c05 31bc d69b ba3b 1a2d 103c
000003b0: d38a 673c 89d0 98bc 5a73 59bb 3ec3 d6bb
000003c0: 6e27 1abc bc47 5abb 546f 1ebd 0675 cd3c
000003d0: 1d47 20bd 346d a53a 3d6a 01bd f372 09bc
000003e0: 08e6 e5bc d126 dc3a 3d8a 8abc 0688 eebc
000003f0: ebfc 1fbd 9bef abbc ab69 003c 0f69 1d3b
0.0039765364 0.026191846 0.031015862 0.040250625 0.036768567 0.030018331 -0.016627267 0.006252209
0.0133312065 -0.0034197068 -0.021027723 0.0066888155 -0.026056115 -0.037727885 -0.018117476 0.0072931815
-0.012675958 -0.025145419 -0.028321171 -0.013536652 0.008062709 -0.0075561902 0.017629795 -0.041541055
-0.01644313 0.039647017 -0.0036482776 0.0013252471 -0.004666119 0.002070732 0.047643457 -0.012681149
-0.023101838 0.037840158 0.031562563 0.007854203 0.049694248 -0.00010729515 -0.040506903 0.0011266461
0.007357922 0.01981836 -0.037993114 0.001041669 -0.055131067 -0.016450133 0.03612057 -0.004383216
-0.008074789 0.04532607 0.03566189 0.06023485 0.0060269185 0.043641575 -0.019766612 -0.032216948
-0.018294008 0.0028569968 0.0071599227 0.018705098 0.0073810294 0.031832572 0.026917305 -0.007288208
-0.008497679 0.04756632 0.0006918243 -0.06463842 -0.0022027998 -0.037043534 0.06811835 -0.0024764207
-0.03257415 -0.016716015 0.040024675 -0.01720381 0.0018110514 0.012543852 -0.009691864 -0.017276216
0.0044979323 0.051220376 -0.021774236 -0.036228072 0.013605152 -0.002434763 0.0036779284 -0.0074231895
-0.018346151 -0.025418095 -0.052574206 -0.03355028 0.030994616 -0.013205664 -0.01946236 -0.036752786
-0.034184106 0.051640883 0.03620941 -0.028360644 -0.02360812 0.02132517 -0.00035635545 0.03660884
-0.012731751 0.044879474 0.004253408 -0.010207684 0.03630792 0.0045429696 -0.03915431 0.009761041
-0.016918678 -0.00050051993 0.01604756 0.022239164 -0.0035544496 0.02679034 -0.007653274 -0.026824532
-0.0021177377 -0.022682536 0.003994426 0.058426276 0.035139285 0.0005480953 -0.00806595 0.004850537
0.04303309 0.045823175 -0.012145019 -0.021995325 0.007130852 0.017600276 -0.0004576988 -0.03724257
0.006215009 -0.023556225 0.008284487 -0.016305419 0.03383911 -0.034497607 -0.025063815 -0.0008818285
-0.0005485068 0.0007321514 0.025182907 -0.036141805 -0.005674434 -0.01635334 0.015198363 0.004034589
-0.0055500837 -0.029584758 0.011787325 0.0102195395 -0.040071838 0.01945725 0.02194326 -0.00027428707
0.0024403813 0.049015705 -0.013269206 -0.031928577 0.045946363 -0.049985655 0.011194177 -0.028213734
0.018045807 0.021963563 -0.047600802 -0.0040437686 -0.0151049895 0.00017877277 0.02482285 0.0010547476
0.04255618 0.019251103 0.006970546 0.0039574266 -0.0119845085 0.04171488 -0.020910209 -0.027723346
0.0045760763 -0.0433507 0.003914124 -0.045143694 0.02598567 0.03193042 -0.022991832 -0.009501406
-0.01567649 0.03943313 0.032533407 0.03261388 0.0020154526 -0.035209786 -0.011069782 -0.02292558
0.052138906 0.008636698 0.017612375 -0.00622558 -0.0007876677 0.012203818 -0.019114133 0.03910756
-0.022662822 0.043707654 -0.008960959 0.024608722 0.024070123 -0.024949588 -0.03887841 -0.033763055
0.04755176 0.011366167 0.066142306 -0.019817155 0.039085116 -0.007399722 -0.023549356 -0.016110254
0.010925243 0.05396263 -0.018090513 -0.02321849 -0.051145464 0.012325746 0.036430642 -0.014661993
0.0025548197 -0.010804441 0.0056948466 0.008799816 0.014132219 -0.018654125 -0.0033180327 -0.0065540364
-0.009408815 -0.0033306917 -0.03868039 0.025080215 -0.03913032 0.0012621046 -0.031595457 -0.008389222
-0.028063789 0.0016796236 -0.01691162 -0.029117595 -0.03905956 -0.020988276 0.007837693 0.0024018919

action_model._continuous_distribution.mu.bias f4 [2]
00000000: e2fd 7bbc 2086 963c
-0.015380355 0.018374503
